lab3/notebooks/cifar100_LNN.onnx (onnx, 123953 bytes, 4 tensors)

seq.0.weight f4 [10, 3072]
0	0xbc6f0432	-0.014588403
1	0x3c830756	0.015994709
2	0xbcb33187	-0.021874202
3	0xbc1a19ba	-0.009405548
4	0x3c4a7997	0.012358091
5	0xbc9d15f9	-0.019175516
6	0xbb848869	-0.0040445817
7	0x3c346096	0.011009356
8	0xbc00ee85	-0.0078693675
9	0x3c7fcaac	0.015612286
10	0x3beb2a82	0.007176698
11	0xbbbc73ce	-0.0057511097
12	0x3b4f550f	0.0031636392
13	0x3c47c023	0.012191805
14	0x3b70f9bd	0.003676995
15	0x3d1c5108	0.038163215
16	0x3d062934	0.032754138
17	0xbb18e4d1	-0.0023329745
18	0x3c942d45	0.018087992
19	0x3cef588d	0.029217029
20	0xbbfbb7f2	-0.00768184
21	0x3c1b3df5	0.009475221
22	0x3d02e5c4	0.031957403
23	0xbb71e16b	-0.0036908041
24	0x3c2de34c	0.010613274
25	0x3a216831	0.00061571883
26	0x3c8efa38	0.017453298
27	0x3d01a735	0.0316536
28	0x3cd30f80	0.025764227
29	0x3bc3fce3	0.005981074
30	0x3ca25ba4	0.019819088
31	0xbb66a37b	-0.0035192657
32	0x3c1fb7c3	0.009748402
33	0x3d2d836d	0.042361666
34	0x3cd2e200	0.02574253
35	0x3c458ff4	0.012058247
36	0x3d1ac029	0.037780914
37	0x3c91c3a0	0.017793477
38	0x3d1113e0	0.035419345
39	0x3c79c16d	0.01524387
40	0x3c3db702	0.011579277
41	0x3bc5bd5e	0.006034537
42	0x3c2354fc	0.009968992
43	0xbb41df0e	-0.0029582414
44	0xba98bd8f	-0.0011653173
45	0x3c58279d	0.013193038
46	0xbbfe07f3	-0.0077524125
47	0xbd02f1c0	-0.031968832
48	0x3ceb58b7	0.028728826
49	0x3c5eafdb	0.013591732
50	0xbbba69ad	-0.005688867
51	0x3c153d8a	0.00910891
52	0x3b00f3a8	0.001967648
53	0xbb1f7e30	-0.0024336688
54	0x3bea374e	0.007147706
55	0x3c3d5857	0.011556706
56	0xbc91786a	-0.017757613
57	0x3ba2b0bb	0.0049649156
58	0x39e4e6a7	0.00043659398
59	0xbcc4d7be	-0.024028655
60	0xbc94feda	-0.018187929
61	0xbc7ea699	-0.01554265
62	0xbd2434e1	-0.04008949
63	0x3c5f7164	0.013637874
64	0x3bc712e9	0.0060752523
65	0xbc94243c	-0.018083684
66	0x3d16a2b6	0.036776267
67	0x3cae610f	0.021286516
68	0x3c5b187b	0.013372536
69	0x3d368eac	0.044569656
70	0x3c91fcc5	0.017820725
71	0x3ca4308b	0.020042678
72	0x3b937c24	0.0045008827
73	0x3c4dd510	0.012563005
74	0xbb11e61a	-0.0022262395
75	0x3cd8ca6f	0.026463715
76	0x3c2ebadf	0.010664671
77	0xbc807cf1	-0.015684577
78	0xbc1f3945	-0.009718244
79	0xbc6c664a	-0.0144286845
80	0xbb04c70e	-0.0020260247
81	0xbb4ec40b	-0.0031549956
82	0xbc52ce99	-0.0128666395
83	0xbca50559	-0.020144152
84	0x3c31bb12	0.010847824
85	0x3a74aa49	0.0009333236
86	0xbc9c14b9	-0.01905285
87	0xbacf1f03	-0.0015802089
88	0x3bf267ea	0.0073976414
89	0x3c317353	0.010830718
90	0x39afb057	0.00033509984
91	0x3ba95c18	0.005168449
92	0x3ce45498	0.027872369
93	0xbc8cc034	-0.017181493
94	0xbbf7b225	-0.0075590783
95	0xbc1b5f5c	-0.009483185
96	0x38907b4c	6.889421e-05
97	0xbc648c9f	-0.013949542
98	0xbcaac8a7	-0.020847632
99	0xbbb1563c	-0.0054118913
100	0xbbf91daa	-0.007602413
101	0xbcaadf6e	-0.020858493
102	0x3b6f8cda	0.003655246
103	0x3c8955d9	0.016764568
104	0x3c420ba7	0.011843598
105	0x3ca19ecd	0.019729042
106	0xbc09af72	-0.008403646
107	0xbc4652a0	-0.01210466
108	0x3c9ffd21	0.019529881
109	0x3cbb44ba	0.02285992
110	0xbc5363d4	-0.012902219
111	0x3b62e29f	0.003461994
112	0xbac0454d	-0.0014669091
113	0x3c35722b	0.011074583
114	0x3b725e9e	0.0036982666
115	0x3d1012f6	0.035174333
116	0xbba105cb	-0.0049140207
117	0x3c8513da	0.016244818
118	0x3c002ca8	0.007823147
119	0x3c32d465	0.010914897
120	0x3c8b6c9d	0.017019564
121	0xbb991ba2	-0.0046724835
122	0x3b178447	0.0023119615
123	0x39619542	0.00021513275
124	0x3b0d7a4e	0.0021587792
125	0xbc2a9799	-0.01041212
126	0x3aa18c76	0.0012325186
127	0x3c24aeaa	0.010051409
128	0xbb43da1b	-0.002988464
129	0x3cb7f08a	0.022453565
130	0x3c42bf54	0.0118864365
131	0x3ba7b66f	0.0051181833
132	0x3ce3824b	0.02777209
133	0x3d1736f8	0.036917657
134	0x3a5541e1	0.0008135122
135	0x3ce9047c	0.028444521
136	0x3cbb39b7	0.022854669
137	0x3be00505	0.006836536
138	0x3cb8dbb9	0.02256571
139	0x3cf601fb	0.030030241
140	0x3bbc2e7d	0.0057428465
141	0x3cb8d287	0.022561325
142	0xbc434538	-0.0119183585
143	0xbc55b24b	-0.013042997
144	0x3c1ed621	0.009694607
145	0x3a90d5d0	0.0011050049
146	0x3bbd9e2a	0.005786677
147	0x3c97802a	0.01849373
148	0xbccc63da	-0.024949957
149	0xbcffceb3	-0.031226492
150	0x3c306299	0.010765695
151	0xbc9bda5c	-0.01902502
152	0xbceaec31	-0.028677078
153	0x3b9cf6a5	0.0047901445
154	0xbc629d67	-0.013831473
155	0xbbe3e434	-0.006954694
156	0xbbbdbcc3	-0.0057903244
157	0xbc1a0705	-0.009401088
158	0xbd002732	-0.03128738
159	0xbb88cb00	-0.00417459
160	0x3be30bd8	0.006928902
161	0xbc1ebccc	-0.009688567
162	0x3d1aeb97	0.037822332
163	0x3ca665b5	0.02031217
164	0x3c1aab40	0.009440243
165	0x3c9672be	0.01836526
166	0x3ccccb71	0.024999352
167	0x3c42118e	0.011845006
168	0x3c135543	0.008992496
169	0xb922361d	-0.00015469683
170	0xbbe7f304	-0.0070785303
171	0x3bf70d25	0.0075394087
172	0xbb4e2678	-0.0031456035
173	0xbca7cfe6	-0.020484876
174	0x3bafd48f	0.005365915
175	0xbca358f8	-0.019939885
176	0xbca3a12d	-0.019974316
177	0xbb5dbfd7	-0.003383627
178	0xbc415ef1	-0.011802421
179	0xbc369a3c	-0.011145171
180	0x3c92ab18	0.01790385
181	0x3c292d9d	0.010325816
182	0x3c925847	0.01786436
183	0xb9524936	-0.00020054434
184	0xb9f5e4f8	-0.00046900637
185	0xbbe31590	-0.0069300607
186	0xba081b73	-0.00051920785
187	0x38c8bad6	9.571544e-05
188	0x3989fea8	0.0002632041
189	0xbba027fc	-0.004887579
190	0xbc94cad3	-0.01816312
191	0xbc43a6e5	-0.011941646
192	0x3c06255b	0.008187617
193	0xbba80ce4	-0.00512849
194	0xbccf6e33	-0.025321102
195	0x3c5e9c77	0.013587109
196	0x3c83c7da	0.016086508
197	0xbcbd3407	-0.023096098
198	0xbc0769f5	-0.008265008
199	0x3bdd0979	0.006745514
200	0x3c36fa7c	0.011168119
201	0x3c770441	0.015076698
202	0x3b67cfd2	0.0035371673
203	0xbb23fb7c	-0.0025021723
204	0x3c45dca8	0.012076534
205	0xbb7ad96d	-0.0038276569
206	0xbc485d00	-0.012229204
207	0xbb2c3781	-0.00262782
208	0x39e4bdd2	0.00043628976
209	0xbc096c48	-0.008387633
210	0x3ccd3c0e	0.02505305
211	0xbb53bf2d	-0.0032309995
212	0x3c6fe536	0.0146420505
213	0x3c29374c	0.010328125
214	0xbc06be4f	-0.008224084
215	0xbc59042d	-0.0132456245
216	0xbc17f302	-0.009274246
217	0xbae3fc12	-0.0017393848
218	0xbbfce3c1	-0.00771758
219	0x3b5943b5	0.0033151929
220	0xbc0a226e	-0.00843106
221	0xbcb9125f	-0.022591768
222	0xbc5aa62d	-0.013345283
223	0xbc331bcc	-0.01093192
224	0xbaafa83d	-0.0013401579
225	0x3ad7043d	0.0016404461
226	0x3c0d7aea	0.008635262
227	0xbce820c0	-0.028335929
228	0x3d0d2bb9	0.034465525
229	0x3cad2287	0.021134628
230	0xbc1d06e9	-0.009584167
231	0x3c554d6e	0.013018949
232	0x3cf9a315	0.030473271
233	0x3b75a776	0.0037483848
234	0x3d046aa7	0.032328274
235	0x3c52ff6b	0.012878279
236	0xbb9c4f95	-0.004770229
237	0x3d0ce208	0.034395248
238	0x3c937b5a	0.018003155
239	0xbc82e7a1	-0.01597959
240	0x3c38ad4b	0.011271785
241	0x3b86ba8d	0.004111594
242	0xbc0b2c72	-0.008494483
243	0x3c3868a9	0.011255422
244	0x3b316583	0.0027068562
245	0xbc5fbe11	-0.013656155
246	0x3ce5bb26	0.02804334
247	0xb9ff22f4	-0.00048663432
248	0xbc8116ea	-0.015757997
249	0x3c56c240	0.013107836
250	0x3c5bbde8	0.013411976
251	0xba43f0ea	-0.00074745587
252	0x3ca0ca25	0.01962764
253	0xbcaa7ad4	-0.020810522
254	0xbd06a929	-0.032876167
255	0x3c52fa11	0.012877003

seq.0.bias f4 [10]
0	0x3d3c0625	0.045904297
1	0xb9097f77	-0.00013112822
2	0x3ca9d980	0.020733595
3	0x3d8b0301	0.06787682
4	0x3b21818f	0.0024643873
5	0xbb743fdc	-0.0037269508
6	0xba8e476f	-0.0010855029
7	0xbc3fdf53	-0.0117109595
8	0xbb1ed99e	-0.0024238597
9	0x3d091bfb	0.03347395

seq.2.weight f4 [3, 10]
0	0x3edde24a	0.43336707
1	0xbdb455b4	-0.08805409
2	0xbdeceb1b	-0.1156828
3	0x3f25119d	0.6448
4	0xbf0893aa	-0.5335032
5	0x3df86024	0.12127712
6	0x3e21d963	0.15805583
7	0xbea2c7d8	-0.31793094
8	0x3d8dc7b4	0.06922856
9	0xbefe1472	-0.49624974
10	0xbe99d9d8	-0.30049014
11	0xbcd28091	-0.02569607
12	0x3f158b76	0.58415926
13	0xbe258db8	-0.16167343
14	0x3e927b3c	0.28609645
15	0xbde70287	-0.11279779
16	0xbf02cff1	-0.51098543
17	0xbf0062ad	-0.5015057
18	0xbeb7f21d	-0.35926905
19	0x3ec7f1a8	0.39051557
20	0xbf1369a6	-0.5758308
21	0x3ed4eafe	0.41585535
22	0xbd223369	-0.03959981
23	0xbf0a1b09	-0.539475
24	0x3ed4df8b	0.415768
25	0x3e9b56d1	0.30339673
26	0x3f0cf3d2	0.5505954
27	0x3ef91b7f	0.4865379
28	0xbe49e4c7	-0.19716178
29	0xbee12415	-0.4397284

seq.2.bias f4 [3]
0	0x3dd7a463	0.10529401
1	0xbc41eb67	-0.011835909
2	0xbeba747f	-0.36417004
